…
d":{"line":1,"column":1}},"key":"fpv2D3s8kR"}],"identifier":"model","label":"Model","html_id":"model","implicit":true,"key":"qun3TAO6t0"}],"key":"DuCqcvjE13"},{"type":"block","kind":"notebook-code","children":[{"type":"code","lang":"python","executable":true,"value":"vocab_size = 10\nmax_len = 12\n\nconfig = GPT1Config(vocab_size, max_len)\nmodel = GPT(config)\nmodel","key":"nEC1loRx1I"},{"type":"outputs","id":"RhAkmydXFaxbrOYVrQEPg","children":[{"type":"output","jupyter_data":{"output_type":"execute_result","execution_count":11,"metadata":{},"data":{"text/plain":{"content":"GPT(\n  (tok_embed): Embedding(10, 768)\n  (dropout): Dropout(p=0.1, inplace=False)\n  (blocks): Sequential(\n    (0): Block(\n      (ln1): LayerNorm((768,), eps=1e-05, elementwise_affine=True)\n      (ln2): LayerNorm((768,), eps=1e-05, elementwise_affine=True)\n      (attn): MultiheadAttention(\n        (key): Linear(in_features=768, out_features=768, bias=True)\n        (value): Linear(in_features=768, out_features=768, bias=True)\n        (query): Linear(in_features=768, out_features=768, bias=True)\n        (proj): Linear(in_features=768, out_features=768, bias=True)\n        (attn_dropout): Dropout(p=0.1, inplace=False)\n        (proj_dropout): Dropout(p=0.1, inplace=False)\n      )\n      (ff): Sequential(\n        (0): Linear(in_features=768, out_features=3072, bias=True)\n        (1): GELU(approximate='none')\n        (2): Linear(in_features=3072, out_features=768, bias=True)\n        (3): Dropout(p=0.1, inplace=False)\n      )\n    )\n    (1): Block(\n      (ln1): LayerNorm((768,), eps=1e-05, elementwise_affine=True)\n      (ln2): LayerNorm((768,), eps=1e-05, elementwise_affine=True)\n      (attn): MultiheadAttention(\n        (key): Linear(in_features=768, out_features=768, bias=True)\n        (value): Linear(in_features=768, out_features=768, bias=True)\n        (query): Linear(in_features=768, out_features=768, bias=True)\n        (proj): Linear(in_features=768, out_features=768, bias=True)\n        (attn_dropout): Dropout(p=0.1, inplace=False)\n        (proj_dropout): Dropout(p=0.1, inplace=False)\n      )\n      (ff): Sequential(\n        (0): Linear(in_features=768, out_features=3072, bias=True)\n        (1): GELU(approximate='none')\n        (2): Linear(in_features=3072, out_features=768, bias=True)\n        (3): Dropout(p=0.1, inplace=False)\n      )\n    )\n    (2): Block(\n      (ln1): LayerNorm((768,), eps=1e-05, elementwise_affine=True)\n      (ln2): LayerNorm((768,), eps=1e-05, elementwise_affine=True)\n      (attn): MultiheadAttention(\n        (key): Linear(in_features=768, out_features=768, bias=True)\n        (value): Linear(in_features=768, out_features=768, bias=True)\n        (query): Linear(in_features=768, out_features=768, bias=True)\n        (proj): Linear(in_features=768, out_features=768, bias=True)\n        (attn_dropout): Dropout(p=0.1, inplace=False)\n        (proj_dropout): Dropout(p=0.1, inplace=False)\n      )\n      (ff): Sequential(\n        (0): Linear(in_features=768, out_features=3072, bias=True)\n        (1): GELU(approximate='none')\n        (2): Linear(in_features=3072, out_features=768, bias=True)\n        (3): Dropout(p=0.1, inplace=False)\n      )\n    )\n    (3): Block(\n      (ln1): LayerNorm((768,), eps=1e-05, elementwise_affine=True)\n      (ln2): LayerNorm((768,), eps=1e-05, elementwise_affine=True)\n      (attn): MultiheadAttention(\n        (key): Linear(in_features=768, out_features=768, bias=True)\n        (value): Linear(in_features=768, out_features=768, bias=True)\n        (query): Linear(in_features=768, out_features=768, bias=True)\n        (proj): Linear(in_features=768, out_features=768, bias=True)\n        (attn_dropout): Dropout(p=0.1, inplace=False)\n        (proj_dropout): Dropout(p=0.1, inplace=False)\n      )\n      (ff): Sequential(\n        (0): Linear(in_features=768, out_features=3072, bias=True)\n        (1): GELU(approximate='none')\n        (2): Linear(in_features=3072, out_features=768, bias=True)\n        (3): Dropout(p=0.1, inplace=False)\n      )\n    )\n    (4): Block(\n      (ln1): LayerNorm((768,), eps=1e-05, elementwise_affine=True)\n      (ln2): LayerNorm((768,), eps=1e-05, elementwise_affine=True)\n      (attn): MultiheadAttention(\n        (key): Linear(in_features=768, out_features=768, bias=True)\n        (value): Linear(in_features=768, out_features=768, bias=True)\n        (query): Linear(in_features=768, out_features=768, bias=True)\n        (proj): Linear(in_features=768, out_features=768, bias=True)\n        (attn_dropout): Dropout(p=0.1, inplace=False)\n        (proj_dropout): Dropout(p=0.1, inplace=False)\n      )\n      (ff): Sequential(\n        (0): Linear(in_features=768, out_features=3072, bias=True)\n        (1): GELU(approximate='none')\n        (2): Linear(in_features=3072, out_features=768, bias=True)\n        (3): Dropout(p=0.1, inplace=False)\n      )\n    )\n    (5): Block(\n      (ln1): LayerNorm((768,), eps=1e-05, elementwise_affine=True)\n      (ln2): LayerNorm((768,), eps=1e-05, elementwise_affine=True)\n      (attn): MultiheadAttention(\n        (key): Linear(in_features=768, out_features=768, bias=True)\n        (value): Linear(in_features=768, out_features=768, bias=True)\n        (query): Linear(in_features=768, out_features=768, bias=True)\n        (proj): Linear(in_features=768, out_features=768, bias=True)\n        (attn_dropout): Dropout(p=0.1, inplace=False)\n        (proj_dropout): Dropout(p=0.1, inplace=False)\n      )\n      (ff): Sequential(\n        (0): Linear(in_features=768, out_features=3072, bias=True)\n        (1): GELU(approximate='none')\n        (2): Linear(in_features=3072, out_features=768, bias=True)\n        (3): Dropout(p=0.1, inplace=False)\n      )\n    )\n    (6): Block(\n      (ln1): LayerNorm((768,), eps=1e-05, elementwise_affine=True)\n      (ln2): LayerNorm((768,), eps=1e-05, elementwise_affine=True)\n      (attn): MultiheadAttention(\n        (key): Linear(in_features=768, out_features=768, bias=True)\n        (value): Linear(in_features=768, out_features=768, bias=True)\n        (query): Linear(in_features=768, out_features=768, bias=True)\n        (proj): Linear(in_features=768, out_features=768, bias=True)\n        (attn_dropout): Dropout(p=0.1, inplace=False)\n        (proj_dropout): Dropout(p=0.1, inplace=False)\n      )\n      (ff): Sequential(\n        (0): Linear(in_features=768, out_features=3072, bias=True)\n        (1): GELU(approximate='none')\n        (2): Linear(in_features=3072, out_features=768, bias=True)\n        (3): Dropout(p=0.1, inplace=False)\n      )\n    )\n    (7): Block(\n      (ln1): LayerNorm((768,), eps=1e-05, elementwise_affine=True)\n      (ln2): LayerNorm((768,), eps=1e-05, elementwise_affine=True)\n      (attn): MultiheadAttention(\n        (key): Linear(in_features=768, out_features=768, bias=True)\n        (value): Linear(in_features=768, out_features=768, bias=True)\n        (query): Linear(in_features=768, out_features=768, bias=True)\n        (proj): Linear(in_features=768, out_features=768, bias=True)\n        (attn_dropout): Dropout(p=0.1, inplace=False)\n        (proj_dropout): Dropout(p=0.1, inplace=False)\n      )\n      (ff): Sequential(\n        (0): Linear(in_features=768, out_features=3072, bias=True)\n        (1): GELU(approximate='none')\n        (2): Linear(in_features=3072, out_features=768, bias=True)\n        (3): Dropout(p=0.1, inplace=False)\n      )\n    )\n    (8): Block(\n      (ln1): LayerNorm((768,), eps=1e-05, elementwise_affine=True)\n      (ln2): LayerNorm((768,), eps=1e-05, elementwise_affine=True)\n      (attn): MultiheadAttention(\n        (key): Linear(in_features=768, out_features=768, bias=True)\n        (value): Linear(in_features=768, out_features=768, bias=True)\n        (query): Linear(in_features=768, out_features=768, bias=True)\n        (proj): Linear(in_features=768, out_features=768, bias=True)\n        (attn_dropout): Dropout(p=0.1, inplace=False)\n        (proj_dropout): Dropout(p=0.1, inplace=False)\n      )\n      (ff): Sequential(\n        (0): Linear(in_features=768, out_features=3072, bias=True)\n        (1): GELU(approximate='none')\n        (2): Linear(in_features=3072, out_features=768, bias=True)\n        (3): Dropout(p=0.1, inplace=False)\n      )\n    )\n    (9): Block(\n      (ln1): LayerNorm((768,), eps=1e-05, elementwise_affine=True)\n      (ln2): LayerNorm((768,), eps=1e-05, elementwise_affine=True)\n      (attn): MultiheadAttention(\n        (key): Linear(in_features=768, out_features=768, bias=True)\n        (value): Linear(in_features=768, out_features=768, bias=True)\n        (query): Linear(in_features=768, out_features=768, bias=True)\n        (proj): Linear(in_features=768, out_features=768, bias=True)\n        (attn_dropout): Dropout(p=0.1, inplace=False)\n        (proj_dropout): Dropout(p=0.1, inplace=False)\n      )\n      (ff): Sequential(\n        (0): Linear(in_features=768, out_features=3072, bias=True)\n        (1): GELU(approximate='none')\n        (2): Linear(in_features=3072, out_features=768, bias=True)\n        (3): Dropout(p=0.1, inplace=False)\n      )\n    )\n    (10): Block(\n      (ln1): LayerNorm((768,), eps=1e-05, elementwise_affine=True)\n      (ln2): LayerNorm((768,), eps=1e-05, elementwise_affine=True)\n      (attn): MultiheadAttention(\n        (key): Linear(in_features=768, out_features=768, bias=True)\n        (value): Linear(in_features=768, out_features=768, bias=True)\n        (query): Linear(in_features=768, out_features=768, bias=True)\n        (proj): Linear(in_features=768, out_features=768, bias=True)\n        (attn_dropout): Dropout(p=0.1, inplace=False)\n        (proj_dropout): Dropout(p=0.1, inplace=False)\n      )\n      (ff): Sequential(\n        (0): Linear(in_features=768, out_features=3072, bias=True)\n        (1): GELU(approximate='none')\n        (2): Linear(in_features=3072, out_features=768, bias=True)\n        (3): Dropout(p=0.1, inplace=False)\n      )\n    )\n    (11): Block(\n      (ln1): LayerNorm((768,), eps=1e-05, elementwise_affine=True)\n      (ln2): LayerNorm((768,), eps=1e-05, elementwise_affine=True)\n      (attn): MultiheadAttention(\n        (key): Linear(in_features=768, out_features=768, bias=True)\n        (value): Linear(in_features=768, out_features=768, bias=True)\n        (query): Linear(in_features=768, out_features=768, bias=True)\n        (proj): Linear(in_features=768, out_features=768, bias=True)\n        (attn_dropout): Dropout(p=0.1, inplace=False)\n        (proj_dropout): Dropout(p=0.1, inplace=False)\n      )\n      (ff): Sequential(\n        (0): Linear(in_features=768, out_features=3072, bias=True)\n        (1): GELU(approximate='none')\n        (2): Linear(in_features=3072, out_features=768, bias=True)\n        (3): Dropout(p=0.1, inplace=False)\n      )\n    )\n  )\n  (ln): LayerNorm((768,), eps=1e-05, elementwise_affine=True)\n  (fc): Linear(in_features=768, out_features=10, bias=True)\n)","content_type":"text/plain"}}},"children":[],"key":"gY34Grz4de"}],"key":"YQcWJtj5dy"}],"key":"XUZ8mNjIBv"},{"type":"block","kind":"notebook-code","children":[{"type":"code","lang":"python","executable":true,"value":"","key":"x0h8vIYgKB"},{"type":"outputs","id":"LzsrRMcqVrwdzAmjgd0ou","children":[],"key":"XYRnQr7NEL"}],"key":"JeHypNHNV3"}],"key":"lkW
…
